use pickle False use_h5 True channel_last True gpu_id 0
gpu id 0
mean [125.307, 122.95, 113.865] std [62.9932, 62.0887, 66.7048] l bounds [-1.99 -1.98 -1.71] h_bounds [2.06 2.13 2.12]
tensorflow 2.4.1
keras 2.4.0
number of seed images 10 (10,)
# samples for RE 3
Model: "sequential"
_________________________________________________________________
Layer (type)                 Output Shape              Param #   
=================================================================
conv2d_1 (Conv2D)            (None, 32, 32, 192)       14592     
_________________________________________________________________
activation_1 (Activation)    (None, 32, 32, 192)       0         
_________________________________________________________________
conv2d_2 (Conv2D)            (None, 32, 32, 160)       30880     
_________________________________________________________________
activation_2 (Activation)    (None, 32, 32, 160)       0         
_________________________________________________________________
conv2d_3 (Conv2D)            (None, 32, 32, 96)        15456     
_________________________________________________________________
activation_3 (Activation)    (None, 32, 32, 96)        0         
_________________________________________________________________
max_pooling2d_1 (MaxPooling2 (None, 16, 16, 96)        0         
_________________________________________________________________
dropout_1 (Dropout)          (None, 16, 16, 96)        0         
_________________________________________________________________
conv2d_4 (Conv2D)            (None, 16, 16, 192)       460992    
_________________________________________________________________
activation_4 (Activation)    (None, 16, 16, 192)       0         
_________________________________________________________________
conv2d_5 (Conv2D)            (None, 16, 16, 192)       37056     
_________________________________________________________________
activation_5 (Activation)    (None, 16, 16, 192)       0         
_________________________________________________________________
conv2d_6 (Conv2D)            (None, 16, 16, 192)       37056     
_________________________________________________________________
activation_6 (Activation)    (None, 16, 16, 192)       0         
_________________________________________________________________
max_pooling2d_2 (MaxPooling2 (None, 8, 8, 192)         0         
_________________________________________________________________
dropout_2 (Dropout)          (None, 8, 8, 192)         0         
_________________________________________________________________
conv2d_7 (Conv2D)            (None, 8, 8, 192)         331968    
_________________________________________________________________
activation_7 (Activation)    (None, 8, 8, 192)         0         
_________________________________________________________________
conv2d_8 (Conv2D)            (None, 8, 8, 192)         37056     
_________________________________________________________________
activation_8 (Activation)    (None, 8, 8, 192)         0         
_________________________________________________________________
conv2d_9 (Conv2D)            (None, 8, 8, 10)          1930      
_________________________________________________________________
activation_9 (Activation)    (None, 8, 8, 10)          0         
_________________________________________________________________
average_pooling2d_1 (Average (None, 1, 1, 10)          0         
_________________________________________________________________
flatten_1 (Flatten)          (None, 10)                0         
_________________________________________________________________
activation_10 (Activation)   (None, 10)                0         
=================================================================
Total params: 966,986
Trainable params: 966,986
Non-trainable params: 0
_________________________________________________________________
image range -1.9892148 2.126796
0  is the l_in
0  is the l_out
Tensor("conv2d_1_input:0", shape=(None, 32, 32, 3), dtype=float32)
Tensor("conv2d_1/BiasAdd:0", shape=(None, 32, 32, 192), dtype=float32)
…
